…
orm=False, terminate_on_nan=False, test=False, tot_updates=892195, tpu_cores=None, track_grad_norm=-1, truncated_bptt_steps=None, val_check_interval=1.0, validate=False, warmup_updates=52482, weight_decay=0.0, weights_save_path=None, weights_summary='top')
 > ogbg-molhiv loaded!
{'num_class': 1, 'loss_fn': <function binary_cross_entropy_with_logits at 0x2b31cde988c0>, 'metric': 'rocauc', 'metric_mode': 'max', 'evaluator': <ogb.graphproppred.evaluate.Evaluator object at 0x2b325f8f5210>, 'dataset': MyGraphPropPredDataset(41127), 'max_node': 128}
 > dataset info ends
7
Graphormer(
  (atom_encoder): Embedding(4609, 512, padding_idx=0)
  (edge_encoder): Embedding(1537, 32, padding_idx=0)
  (edge_dis_encoder): Embedding(131072, 1)
  (spatial_pos_encoder): Embedding(512, 32, padding_idx=0)
  (in_degree_encoder): Embedding(512, 512, padding_idx=0)
  (out_degree_encoder): Embedding(512, 512, padding_idx=0)
  (input_dropout): Dropout(p=0.0, inplace=False)
  (layers): ModuleList(
    (0): EncoderLayer(
      (self_attention_norm): LayerNorm((512,), eps=1e-05, elementwise_affine=True)
      (self_attention): MultiHeadAttention(
        (linear_q): Linear(in_features=512, out_features=512, bias=True)
        (linear_k): Linear(in_features=512, out_features=512, bias=True)
        (linear_v): Linear(in_features=512, out_features=512, bias=True)
        (att_dropout): Dropout(p=0.3, inplace=False)
        (output_layer): Linear(in_features=512, out_features=512, bias=True)
      )
      (self_attention_dropout): Dropout(p=0.1, inplace=False)
      (ffn_norm): LayerNorm((512,), eps=1e-05, elementwise_affine=True)
      (ffn): FeedForwardNetwork(
        (layer1): Linear(in_features=512, out_features=512, bias=True)
        (gelu): GELU()
        (layer2): Linear(in_features=512, out_features=512, bias=True)
      )
      (ffn_dropout): Dropout(p=0.1, inplace=False)
    )
    (1): EncoderLayer(
      (self_attention_norm): LayerNorm((512,), eps=1e-05, elementwise_affine=True)
      (self_attention): MultiHeadAttention(
        (linear_q): Linear(in_features=512, out_features=512, bias=True)
        (linear_k): Linear(in_features=512, out_features=512, bias=True)
        (linear_v): Linear(in_features=512, out_features=512, bias=True)
        (att_dropout): Dropout(p=0.3, inplace=False)
        (output_layer): Linear(in_features=512, out_features=512, bias=True)
      )
      (self_attention_dropout): Dropout(p=0.1, inplace=False)
      (ffn_norm): LayerNorm((512,), eps=1e-05, elementwise_affine=True)
      (ffn): FeedForwardNetwork(
        (layer1): Linear(in_features=512, out_features=512, bias=True)
        (gelu): GELU()
        (layer2): Linear(in_features=512, out_features=512, bias=True)
      )
      (ffn_dropout): Dropout(p=0.1, inplace=False)
    )
    (2): EncoderLayer(
      (self_attention_norm): LayerNorm((512,), eps=1e-05, elementwise_affine=True)
      (self_attention): MultiHeadAttention(
        (linear_q): Linear(in_features=512, out_features=512, bias=True)
        (linear_k): Linear(in_features=512, out_features=512, bias=True)
        (linear_v): Linear(in_features=512, out_features=512, bias=True)
        (att_dropout): Dropout(p=0.3, inplace=False)
        (output_layer): Linear(in_features=512, out_features=512, bias=True)
      )
      (self_attention_dropout): Dropout(p=0.1, inplace=False)
      (ffn_norm): LayerNorm((512,), eps=1e-05, elementwise_affine=True)
      (ffn): FeedForwardNetwork(
        (layer1): Linear(in_features=512, out_features=512, bias=True)
        (gelu): GELU()
        (layer2): Linear(in_features=512, out_features=512, bias=True)
      )
      (ffn_dropout): Dropout(p=0.1, inplace=False)
    )
    (3): EncoderLayer(
      (self_attention_norm): LayerNorm((512,), eps=1e-05, elementwise_affine=True)
      (self_attention): MultiHeadAttention(
        (linear_q): Linear(in_features=512, out_features=512, bias=True)
        (linear_k): Linear(in_features=512, out_features=512, bias=True)
        (linear_v): Linear(in_features=512, out_features=512, bias=True)
        (att_dropout): Dropout(p=0.3, inplace=False)
        (output_layer): Linear(in_features=512, out_features=512, bias=True)
      )
      (self_attention_dropout): Dropout(p=0.1, inplace=False)
      (ffn_norm): LayerNorm((512,), eps=1e-05, elementwise_affine=True)
      (ffn): FeedForwardNetwork(
        (layer1): Linear(in_features=512, out_features=512, bias=True)
        (gelu): GELU()
        (layer2): Linear(in_features=512, out_features=512, bias=True)
      )
      (ffn_dropout): Dropout(p=0.1, inplace=False)
    )
    (4): EncoderLayer(
      (self_attention_norm): LayerNorm((512,), eps=1e-05, elementwise_affine=True)
      (self_attention): MultiHeadAttention(
        (linear_q): Linear(in_features=512, out_features=512, bias=True)
        (linear_k): Linear(in_features=512, out_features=512, bias=True)
        (linear_v): Linear(in_features=512, out_features=512, bias=True)
        (att_dropout): Dropout(p=0.3, inplace=False)
        (output_layer): Linear(in_features=512, out_features=512, bias=True)
      )
      (self_attention_dropout): Dropout(p=0.1, inplace=False)
      (ffn_norm): LayerNorm((512,), eps=1e-05, elementwise_affine=True)
      (ffn): FeedForwardNetwork(
        (layer1): Linear(in_features=512, out_features=512, bias=True)
        (gelu): GELU()
        (layer2): Linear(in_features=512, out_features=512, bias=True)
      )
      (ffn_dropout): Dropout(p=0.1, inplace=False)
    )
    (5): EncoderLayer(
      (self_attention_norm): LayerNorm((512,), eps=1e-05, elementwise_affine=True)
      (self_attention): MultiHeadAttention(
        (linear_q): Linear(in_features=512, out_features=512, bias=True)
        (linear_k): Linear(in_features=512, out_features=512, bias=True)
        (linear_v): Linear(in_features=512, out_features=512, bias=True)
        (att_dropout): Dropout(p=0.3, inplace=False)
        (output_layer): Linear(in_features=512, out_features=512, bias=True)
      )
      (self_attention_dropout): Dropout(p=0.1, inplace=False)
      (ffn_norm): LayerNorm((512,), eps=1e-05, elementwise_affine=True)
      (ffn): FeedForwardNetwork(
        (layer1): Linear(in_features=512, out_features=512, bias=True)
        (gelu): GELU()
        (layer2): Linear(in_features=512, out_features=512, bias=True)
      )
      (ffn_dropout): Dropout(p=0.1, inplace=False)
    )
  )
  (final_ln): LayerNorm((512,), eps=1e-05, elementwise_affine=True)
  (downstream_out_proj): Linear(in_features=512, out_features=1, bias=True)
  (graph_token): Embedding(1, 512)
  (graph_token_virtual_distance): Embedding(1, 32)
)
total params: 12550721
Validation sanity check: 0it [00:00, ?it/s]len(val_dataloader) 33
Validation sanity check:   0%|          | 0/2 [00:00<?, ?it/s]Namespace(accelerator='ddp', accumulate_grad_batches=1, amp_backend='native', amp_level='O2', attention_dropout_rate=0.3, auto_lr_find=False, auto_scale_batch_size=False, auto_select_gpus=False, batch_size=128, benchmark=False, check_val_
…
